model.onnx (onnx, 111855 bytes, 8 tensors)

conv0.weight f4 [10, 1, 5, 5]
-0.15299909 0.009837723 0.086488985 0.020992374 -0.06483972 0.07981437 0.18854812 0.17350917
-0.03321855 0.15311335 -0.0024699927 -0.16666833 -0.03239098 0.13099603 -0.18880785 -0.020791842
-0.15559304 0.14183863 0.11090126 0.050446656 -0.103378706 0.028491354 0.07264107 -0.04363499
-0.09385278 0.14591141 -0.020946551 0.14253555 -0.01022079 -0.13661154 0.19645186 0.032533884
0.13539861 0.050510693 0.1020891 -0.1859703 -0.031895734 0.05975456 -0.18084541 -0.1729105
0.083798625 -0.05206096 0.043028187 -0.08769982 0.056798816 -0.14006637 0.14761388 -0.026813412
0.18235551 0.13731904 0.04082153 0.13745557 -0.09355173 0.009812593 0.16477148 0.19639535
-0.19291142 -0.079131626 0.17340846 -0.18417166 0.17749391 -0.04108441 0.0842402 0.060097314
0.019108105 -0.184478 -0.040038254 -0.14940572 -0.17454973 0.049907185 0.15562966 0.124067955
-0.116945244 -0.12088072 -0.032947898 0.09739628 -0.16505364 0.053433087 -0.18549974 0.028910948
0.11788537 -0.09302475 0.04524324 0.023726512 0.124858454 -0.18344691 -0.13241994 -0.077750586
-0.1936852 -0.18963583 0.11235738 0.020709658 0.10221129 -0.11392307 -0.18902884 0.1406006
0.10989332 -0.008590746 -0.09085722 -0.122798204 0.013772845 -0.15353516 -0.042522527 0.1289045
-0.19140077 -0.03605609 -0.09802158 0.17026472 -0.0877337 -0.023151064 0.17703874 0.19685645
0.11605058 -0.11389899 -0.0353945 -0.042412378 -0.12744716 -0.1385649 -0.13304634 -0.12610805
-0.059820294 0.04725468 -0.17435025 0.061458588 -0.03457403 -0.16593483 0.17826259 -0.034492232
0.08935609 -0.19983271 0.039403606 -0.1764473 -0.09281118 -0.060660172 -0.14394043 0.13019119
0.035152007 -0.111497715 -0.009148526 0.003606391 -0.08298633 0.09885388 -0.10773649 -0.032325983
0.069849305 -0.009006882 0.14075184 0.012654257 -0.19231002 -0.037176944 -0.13854685 -0.14709346
0.06972468 -0.023732258 -0.091420226 -0.17527771 0.019567132 0.18433078 0.17622507 -0.03629143
0.123634 0.043258358 -0.042759277 -0.13368838 -0.16129728 0.08019729 -0.12880686 -0.024069572
-0.14529853 0.16389032 0.0056939363 0.030229283 0.10592566 -0.033874463 0.10059454 -0.12949757
-0.07840095 0.06356368 0.12675332 -0.053347684 -0.0319222 0.15030865 -0.13177703 0.032335903
0.1677845 -0.09907599 -0.025613522 0.12977616 -0.108255625 0.09131906 0.02309513 0.117752075
-0.0033977272 0.042376496 0.1299778 -0.086028 0.15338854 -0.042912006 0.017723655 -0.0007380486
-0.07127788 -0.14215198 0.00996716 -0.14286399 -0.19515185 -0.051330615 -0.0016095162 0.04520471
0.10788951 0.037602473 0.017505242 0.033189323 0.09974163 0.03633981 -0.068603635 0.18142818
0.10539935 -0.042741325 -0.04581797 -0.09012685 -0.013708281 0.017786933 -0.016758991 -0.057724643
0.16931951 0.09789159 -0.10075796 -0.17439233 -0.17802005 0.1995672 -0.13879685 -0.024667716
-0.07923591 0.103217795 0.18012972 -0.10080178 0.105953716 -0.16162291 0.17090113 0.098728135
-0.01961863 -0.09668722 0.0548713 0.025368094 0.1271569 0.13178943 -0.0033909322 0.0009271383
0.027172208 0.117944814
00000000: cbab 1cbe 672e 213c 2321 b13d 33f8 ab3c
00000010: b0ca 84bd b775 a33d c212 413e 63ac 313e
00000020: 2d10 08bd bfc9 1c3e 9adf 21bb 1aab 2abe
00000030: 67ac 04bd d323 063e d856 41be a753 aabc
00000040: c853 1fbe 253e 113e 3320 e33d 27a1 4e3d
00000050: 37b8 d3bd b366 e93c d7c4 943d 9aba 32bd
00000060: e335 c0bd cd69 153e 1a98 abbc d7f4 113e
00000070: 1a75 27bc e5e3 0bbe ad2a 493e 4042 053d
00000080: efa5 0a3e 4de4 4e3d 1714 d13d 006f 3ebe
00000090: 1aa5 02bd 33c1 743d 8a2f 39be 730f 31be
000000a0: 9d9e ab3d e03d 55bd 533e 303d f79b b3bd
000000b0: e0a5 683d 8f6d 0fbe 1828 173e cda7 dbbc
000000c0: 67bb 3a3e 5d9d 0c3e 7a34 273d 27c1 0c3e
000000d0: 0d98 bfbd 00c5 203c dbb9 283e dd1b 493e
000000e0: 928a 45be c30f a2bd fd91 313e 7f97 3cbe
000000f0: f7c0 353e 2048 28bd 2086 ac3d 9a28 763d
00000100: 9a88 9c3c cde7 3cbe 27ff 23bd d0fd 18be
00000110: 2abd 32be 7a6b 4c3d 625d 1f3e 5717 fe3d
00000120: fd80 efbd 5090 f7bd 60f4 06bd b377 c73d
00000130: d203 29be a7dc 5a3d a5f3 3dbe a7d6 ec3c
00000140: e36d f13d c383 bebd fa50 393d 1a5e c23c
00000150: cab5 ff3d 82d9 3bbe 1899 07be b33b 9fbd
00000160: 6a55 46be e52f 42be a01b e63d 4da7 a93c
00000170: 2754 d13d 8050 e9bd c790 41be 9bf9 0f3e
00000180: c00f e13d 33c0 0cbc 5a13 babd a07d fbbd
00000190: 80a7 613c 5238 1dbe 1a2c 2ebd 8bff 033e
000001a0: 90fe 43be 8daf 13bd 8abf c8bd e059 2e3e
000001b0: baad b3bd 4da7 bdbc a549 353e bd94 493e
000001c0: edab ed3d e043 e9bd d3f9 10bd 9ab8 2dbd
000001d0: 8281 02be f5e3 0dbe 4d3d 08be 7822 01be
000001e0: 2006 75bd 208e 413d df88 32be 00bc 7b3d
000001f0: 809d 0dbd d2ea 29be 788a 363e ba47 0dbd
00000200: 5300 b73d f2a0 4cbe ad65 213d 9aae 34be
00000210: ca13 bebd cd76 78bd 1f65 13be d750 053e
00000220: 8dfb 0f3d ea58 e4bd b3e3 15bc 3359 6c3b
00000230: bdf4 a9bd e773 ca3d f3a4 dcbd 4068 04bd
00000240: 270d 8f3d 9a91 13bc 4021 103e cd53 4f3c
00000250: ebec 44be da46 18bd 3adf 0dbe ab9f 16be
00000260: d0cb 8e3d 276a c2bc 873a bbbd 007c 33be
00000270: 404b a03c 35c1 3c3e 5874 343e 53a6 14bd
00000280: d333 fd3d ad2f 313d 5a24 2fbd 9be5 08be
00000290: 1d2b 25be 7a3e a43d f2e5 03be 8d2d c5bc
000002a0: 23c9 14be ddd2 273e 3394 ba3b 67a3 f73c
000002b0: 8def d83d f3bf 0abd 8304 ce3d 039b 04be
000002c0: ad90 a0bd ad2d 823d 9fcb 013e 1a83 5abd
000002d0: dac0 02bd 83ea 193e 8ff0 06be a772 043d
000002e0: b3cf 2b3e 5ae8 cabd 73d3 d1bc 0be4 043e
000002f0: 20b5 ddbd 7d05 bb3d 0032 bd3c 0028 f13d
00000300: 67ac 5ebb fa92 2d3d e718 053e 732f b0bd
00000310: e311 1d3e 80c4 2fbd 3331 913c 9a79 41ba
00000320: 23fa 91bd 4a90 11be 4d4d 233c f04a 12be
00000330: e3d5 47be 0d40 52bd 67f6 d2ba 9328 393d
00000340: 2df5 dc3d 0d05 1a3d 2767 8f3c 87f1 073d
00000350: 5745 cc3d 0dd9 143d 1080 8cbd 4fc8 393e
00000360: 9ddb d73d 8711 2fbd a0ab 3bbd 6d94 b8bd
00000370: b398 60bc e7b5 913c 274a 89bc ad70 6cbd
00000380: 1862 2d3e 637b c83d 305a cebd e793 32be
00000390: e34a 36be 585b 4c3e c320 0ebe f313 cabc
000003a0: 7046 a2bd da63 d33d ed73 383e 2a71 cebd
000003b0: 43fe d83d 7a80 25be b500 2f3e fa31 ca3d
000003c0: 40b7 a0bc f303 c6bd bac0 603d c0d0 cf3c
000003d0: 6b35 023e cff3 063e 673a 5ebb 330b 733a
000003e0: 4098 de3c 0d8d f13d

conv0.bias f4 [10]
-0.007559514 0.09003649 -0.14493458 -0.0033804178 -0.16290446 -0.057666015 -0.1995434 -0.17924266
0.109387614 0.0051130056
00000000: cdb5 f7bb 0d65 b83d bb69 14be 008a 5dbb
00000010: 6dd0 26be 3333 6cbd 1b55 4cbe 638b 37be
00000020: 9d06 e03d 008b a73b

conv1.weight f4 [20, 10, 5, 5]
-0.034406718 -8.038569e-05 0.06162063 -0.037105054 0.01893883 -0.015687868 0.062872805 -0.047877964
-0.03135063 -0.014024898 -0.048944805 -0.0050253496 -0.04224278 -0.011805508 -0.044393484 0.020756586
-0.030992402 -0.060794335 -0.047070224 -0.001664765 0.03179667 -0.057651334 0.012546984 0.03706858
-0.014612515 0.035970736 0.049521882 0.012032906 -0.035631623 0.0322695 -0.059401747 -0.05508089
0.039307706 0.042182665 -0.04435642 0.04443363 0.04928356 -0.040649135 0.017302405 0.02249324
0.0063786143 0.028240446 -0.009834845 0.036343575 0.02105796 0.033537637 -0.025530908 -0.037047807
0.0022254365 0.015926063 0.048823148 0.013434355 0.015000586 -0.012223058 0.055657215 0.027262857
0.032861605 0.003649233 0.01114472 0.020141553 0.057566836 -0.03134105 -0.0145175485 -0.003616655
0.025395378 0.001073106 0.047879934 0.020909086 -0.047775008 0.050834067 0.00583646 -0.013900716
0.028397659 0.055625375 0.013898582 0.029963046 -0.05441419 0.047050525 0.0020682088 0.04265139
0.056529928 -0.019678753 -0.006375817 -0.032942306 -0.042447913 -0.019190557 0.017606027 0.04548665
0.009012064 -0.016966244 0.043688778 0.05267868 -0.035488904 0.012543847 0.04764906 -0.058095075
0.026955625 -0.015926545 0.05035395 -0.033346377 -0.026979698 0.029740708 -0.0060544857 -0.01600669
-0.052066896 0.0014127962 0.061137382 -0.047443066 -0.030688705 0.04252899 0.016094614 0.034700487
0.060547005 -0.034616232 -0.011812331 0.04925325 0.023785299 0.055369403 -0.05434779 -0.0033129656
-0.029682828 -0.025795544 0.05639352 -0.049163148 -0.019555444 -0.048211563 0.049753577 -0.035217248
0.04282868 0.061063427 0.037492048 0.022288414 0.02425545 -0.03955633 9.045086e-05 0.049951106
-0.00968631 0.0029603904 -0.05758238 -0.030749192 0.039878625 -0.023804298 0.02335662 0.034644227
0.031504158 -0.04149256 0.054684866 1.348055e-05 0.027614724 -0.04669975 -0.053926058 0.047052484
0.030419718 0.000112413305 -0.010774698 0.048990622 0.03928983 0.035170905 0.021694908 0.019524803
-0.047883824 0.051277507 0.04665987 0.014851622 0.062847145 -0.024586547 0.025665104 -0.043216735
0.04698303 -0.013529503 0.057707828 -0.01160051 0.03589543 0.029171426 -0.019264821 0.025103558
-0.006681723 0.040443532 0.023779485 0.03719574 -0.04978946 -0.016679382 0.012453758 -0.0133964615
0.008207476 -0.030869681 0.04525351 -0.062521964 -0.01816458 0.051203437 0.014244794 0.047344655
-0.006373563 -0.0145841595 0.044402767 -0.0033964575 0.009222603 -0.015219758 -0.046169713 -0.04083906
0.036975548 0.04050722 0.0011965194 -0.02187504 -0.0067152134 -0.028075023 -0.05560452 0.0073719453
0.038150866 0.006586515 -0.046211444 -0.0034146805 -0.040717736 -0.016762769 -0.03302975 0.028634239
-0.06115893 -0.011474722 -0.06169635 -0.04951432 0.039174914 -0.044680044 -0.045961805 -0.022708211
-0.032117113 -0.03840741 -0.010392086 0.0154864825 -0.042946007 -0.049749326 0.011787195 0.058073793
-0.052332006 0.061153162 0.015264031 0.0524942 0.017302971 -0.053819012 0.012560042 -0.03843384
-0.021933516 -0.028043328 0.04774181 0.058656342 0.04570151 -0.048890114 0.04755401 0.01777583
0.055190787 0.0038488929 0.06166228 -0.027330667 -0.014398176 -0.059522286 0.0015739144 0.060705144
00000000: 0fee 0cbd bd94 a8b8 ea65 7c3d 78fb 17bd
00000010: 9b25 9b3c d883 80bc 75c3 803d af1b 44bd
00000020: 8569 00bd b0c8 65bc 597a 48bd b0ab a4bb
00000030: c406 2dbd e46b 41bc f1d5 35bd b709 aa3c
00000040: c7e3 fdbc 7b03 79bd b5cc 40bd 3e34 daba
00000050: 3a3d 023d ce23 6cbd dd91 4d3c 39d5 173d
00000060: 5569 6fbc 0d56 133d 75d7 4a3d aa25 453c
00000070: 77f2 11bd 062d 043d 3f4f 73bd 809c 61bd
00000080: 1e01 213d bbc7 2c3d 14af 35bd 0a00 363d
00000090: 8fdd 493d b57f 26bd c6bd 8d3c be43 b83c
000000a0: b203 d13b 8258 e73c 5422 21bc 00dd 143d
000000b0: be81 ac3c c35e 093d 3226 d1bc 71bf 17bd
000000c0: a1d8 113b 6077 823c c8fa 473d c51b 5c3c
000000d0: 05c5 753c 3943 48bc d2f8 633d 5b56 df3c
000000e0: e499 063d f827 6f3b 5898 363c e6ff a43c
000000f0: 34cb 6b3d 795f 00bd 03db 6dbc 6705 6dbb
00000100: f809 d03c 76a7 8c3a c01d 443d 8849 ab3c
00000110: baaf 43bd 6237 503d c63f bf3b d4bf 63bc
00000120: 35a2 e83c 6fd7 633d e1b6 633c 1075 f53c
00000130: 6ae1 5ebd 0db8 403d c98a 073b 39b3 2e3d
00000140: ed8b 673d 5635 a1bc 3bec d0bb 83ee 06bd
00000150: dddd 2dbd 8435 9dbc 843a 903c 3650 3a3d
00000160: 56a7 133c cbfc 8abc 01f3 323d 99c5 573d
00000170: d05c 11bd b584 4d3c a92b 433d 1af5 6dbd
00000180: 0bd2 dc3c 6378 82bc f23f 4e3d 3696 08bd
00000190: 8704 ddbc c9a2 f33c b564 c6bb 7620 83bc
000001a0: 1944 55bd 932d b93a 316b 7a3d a953 42bd
000001b0: e166 fbbc e132 2e3d dad8 833c 1922 0e3d
000001c0: 2300 783d c0c9 0dbd 8288 41bc c7bd 493d
000001d0: 63d9 c23c 07cb 623d ca9b 5ebd 571e 59bb
000001e0: 6729 f3bc 2d51 d3bc e4fc 663d 4c5f 49bd
000001f0: bd32 a0bc 7d79 45bd 68ca 4b3d f63f 10bd
00000200: 206d 2f3d a51d 7a3d 4391 193d 3196 b63c
00000210: 5eb3 c63c d105 22bd 70b0 bd38 8899 4c3d
00000220: 54b3 1ebc 1c03 423b 80db 6bbd bbe5 fbbc
00000230: c557 233d 3b01 c3bc 6256 bf3c 1be7 0d3d
00000240: 810a 013d 1af4 29bd 3dfd 5f3d 852a 6237
00000250: 4638 e23c 3d48 3fbd 92e1 5cbd 1bba 403d
00000260: c632 f93c 6fbf eb38 5c88 30bc 64aa 483d
00000270: 5fee 203d 5e0f 103d 85b9 b13c 7bf2 9f3c
00000280: d421 44bd 5d08 523d 6b1e 3f3d 3854 733c
00000290: 01b6 803d ba69 c9bc a03f d23c 0804 31bd
000002a0: 4771 403d d9aa 5dbc 0b5f 6c3d 1110 3ebc
000002b0: 1607 133d eaf8 ee3c 42d1 9dbc faa5 cd3c
000002c0: 5bf2 dabb 1ea8 253d 32cd c23c 8f5a 183d
000002d0: 08f0 4bbd 33a3 88bc d90a 4c3c d57c 5bbc
000002e0: a678 063c 6ae2 fcbc bf5b 393d 840b 80bd
000002f0: e3cd 94bc b2ba 513d ff62 693c 78ec 413d
00000300: 52d9 d0bb 66f2 6ebc addf 353d 1a97 5ebb
00000310: 671a 173c 4b5c 79bc 741c 3dbd dc46 27bd
00000320: ac73 173d e6ea 253d 87d4 9c3a 4933 b3bc
00000330: 4b0b dcbb 97fd e5bc 91c1 63bd 5c90 f13b
00000340: 1544 1c3d b1d3 d73b 3648 3dbd d5c8 5fbb
00000350: a4c7 26bd 1352 89bc 344a 07bd 5a92 ea3c
00000360: c981 7abd 7900 3cbc 50b5 7cbd 87cf 4abd
00000370: e075 203d 6c02 37bd 7242 3cbd 9206 babc
00000380: 3c8d 03bd 1751 1dbd 9143 2abc 04bb 7d3c
00000390: 27e8 2fbd f3c5 4bbd 141f 413c c9de 6d3d
000003a0: 165a 56bd bd7b 7a3d fc15 7a3c 2904 573d
000003b0: f6be 8d3c 5371 5cbd a2c8 4d3c cd6c 1dbd
000003c0: ebad b3bc 1fbb e5bc eb8c 433d a241 703d
000003d0: 8231 3b3d 0041 48bd fec7 423d 9e9e 913c
000003e0: bc0f 623d b53d 7c3b 9691 7c3d 90e4 dfbc
000003f0: 54e6 6bbc a4cd 73bd ce4b ce3a f5a5 783d

conv1.bias f4 [20]
-0.02404213 -0.03296869 0.054649934 0.05837568 0.055470433 0.009510987 0.03595 -0.017708858
0.00058679597 0.05007415 -0.028050346 0.04941122 -0.005072969 -0.0013128683 -0.03146139 0.00968873
0.016701948 -0.015678776 0.035786696 -0.0045223776
00000000: 00f4 c4bc 2d0a 07bd 9cd8 5f3d 561b 6f3d
00000010: f734 633d f9d3 1b3c 4f40 133d 2b12 91bc
00000020: 36d3 193a 8d1a 4d3d d7c9 e5bc 6b63 4a3d
00000030: 263b a6bb 8d14 acba a9dd 00bd 7bbd 1e3c
00000040: 86d2 883c c770 80bc 1295 123d 7430 94bb

fc0.weight f4 [50, 320]
-0.0546049 -0.016516482 0.029102389 -0.0001524657 -0.009978883 -0.017699448 0.05202621 -0.047418825
0.047702137 0.0055701793 -0.016216861 -0.03481537 -0.0031945626 0.029066004 0.02903956 0.0026851262
-0.04172883 0.009057045 -0.04333166 1.2774892e-05 0.008792284 0.050482985 -0.026271435 0.036292072
0.035137754 0.03624288 -0.008572545 0.029939314 -0.01559497 -0.009088279 -0.04711036 0.026217436
1.0229242e-05 0.0023721913 -0.009528783 -0.053135786 -0.004961076 -0.044235412 -0.017560698 0.009697329
0.0036411306 -0.023463683 -0.034433264 -0.0073278295 -0.04642003 0.006421432 0.025209246 0.015865855
0.019746544 -0.03772359 0.008129575 0.042169545 0.0058541056 -0.049623497 -0.0034366923 0.048731178
0.055575904 0.033076026 0.0041420967 -0.046680793 0.0113801025 -0.0059718653 -0.037717037 -0.03531458
0.016162423 -0.050742503 -0.038559567 -0.047257677 0.0026003334 -0.041535776 0.050644714 -0.02858489
0.017941525 0.009779843 0.04607836 0.04261062 0.02458802 0.030211972 -0.028651122 -0.03265908
0.015841885 0.022363916 -0.039606277 -0.051084038 0.028350057 0.034360494 0.035577714 -0.015914597
0.010905232 -0.03456883 -0.054765508 0.014489452 0.04015269 0.010241891 0.013722832 0.003316154
0.023838533 -0.028046472 -0.008365715 0.038525254 -0.038192447 0.04581881 0.010627003 -0.020617275
-0.00930969 -0.049549326 -0.01611109 0.053452592 0.030946977 -0.0011646809 -0.010467548 -0.0028847798
-0.03839917 0.037867937 -0.029354228 0.044284064 -0.015146136 -0.012735201 -0.053691298 0.052815154
-0.021498656 0.04617199 -0.015568348 -0.049927168 0.020659432 0.0021480278 -0.0016856326 0.04546131
-0.034593847 0.005223278 -0.024627352 0.024068648 -0.035085298 0.054587677 0.024500383 -0.03314983
0.000881061 0.03574542 -0.03335109 -0.04236685 0.04400395 0.0023534389 0.009077343 -0.050019212
-0.031848732 -0.014118654 0.037077345 0.033336744 -0.029247178 0.021207573 0.04530247 -0.009992364
0.0015176798 0.025917776 -0.030896345 0.025540974 0.014477157 -0.02877967 -0.027553022 -0.03653703
0.023875732 0.045032743 0.039298486 -0.040579464 -0.024484342 -0.046727948 0.038880825 0.008799154
0.05103911 0.012147035 -0.05225723 0.018831003 0.00942897 -0.05454017 -0.01789777 0.04117472
-0.029279424 0.0116843805 -0.052832488 0.050096035 -0.042136095 -0.00047273762 -0.01239387 -0.002949294
-0.032577813 -0.022920495 0.055023182 -0.02087242 -0.045731787 -0.04972498 -0.051133085 -0.03398221
-0.053616792 0.051344488 0.033724807 -0.0064732516 -0.046299506 -0.04407027 -0.01116201 0.012150701
0.007522612 -0.020019254 -0.0071965754 0.045029074 0.050100006 -0.045359515 0.017492518 0.011066807
-0.048356883 0.03186955 -0.031081865 -0.033339042 0.03673479 -0.004179422 0.053362995 0.034950018
0.019469634 0.041886218 -0.02351339 -0.030813918 -0.03239187 -0.03952263 -0.053093143 0.020978518
-0.004859077 -0.029284162 -0.006463742 -0.037813865 0.007177663 0.0057015666 0.050979108 -0.038288
0.007825304 -0.019932682 0.024601009 -0.021377765 0.0039329007 -0.04406471 0.03146633 0.038205136
0.0125321355 0.025094705 -0.025549976 0.020146491 -0.046411406 0.033256527 -0.054893322 -0.044192296
0.032080352 0.036813352 0.017277144 -0.022955786 0.0045734113 0.044785917 0.0016050582 0.010062856
00000000: 63a9 5fbd 934d 87bc 2268 ee3c 33df 1fb9
00000010: 787e 23bc 6ffe 90bc 6f19 553d 3e3a 42bd
00000020: 5163 433d 0d86 b63b 39d9 84bc 909a 0ebd
00000030: de5b 51bb d41b ee3c 5fe4 ed3c f1f8 2f3b
00000040: daeb 2abd 0064 143c 8a7c 31bd be53 5637
00000050: 830d 103c 3fc7 4e3d 3137 d7bc ffa6 143d
00000060: 9bec 0f3d 6a73 143d dc73 0cbc 4b43 f53c
00000070: 0c82 7fbc 01e7 14bc cbf6 40bd f3c5 d63c
00000080: 439e 2b37 c476 1b3b 9d1e 1cbc e9a4 59bd
00000090: 8690 a2bb 3130 35bd 74db 8fbc 8ce1 1e3c
000000a0: 09a0 6e3b e936 c0bc e509 0dbd 4a1e f0bb
000000b0: ee22 3ebd e06a d23b 9f83 ce3c 1cf9 813c
000000c0: 81c3 a13c 0d84 1abd e931 053c f9b9 2c3d
000000d0: ccd3 bf3b 0242 4bbd 213a 61bb 589a 473d
000000e0: 8fa3 633d ba7a 073d 6dba 873b 5c34 3fbd
000000f0: 9c73 3a3c a3af c3bb 2e7d 1abd 05a6 10bd
00000100: 0f67 843c 5fd7 4fbd a3f0 1dbd 4491 41bd
00000110: 5b6a 2a3b 6b21 2abd d570 4f3d dc2a eabc
00000120: 1bfa 923c a23b 203c aabc 3c3d 7988 2e3d
00000130: d16c c93c 197f f73c c2b5 eabc 87c5 05bd
00000140: d7c6 813c 8834 b73c 313a 22bd 7f3d 51bd
00000150: 613e e83c 97bd 0c3d f0b9 113d 545f 82bc
00000160: dcab 323c 0c98 0dbd cc51 60bd 2b65 6d3c
00000170: 2677 243d 9bcd 273c bbd5 603c d553 593b
00000180: 0749 c33c b7c1 e5bc 5a10 09bc a8cc 1d3d
00000190: af6f 1cbd 81ac 3b3d e21c 2e3c 8fe5 a8bc
000001a0: ac87 18bc 3cf4 4abd 68fb 83bc 1bf1 5a3d
000001b0: 8484 fd3c 35a8 98ba 1480 2bbc 930e 3dbb
000001c0: 7348 1dbd 691b 1b3d 4778 f0bc 3563 353d
000001d0: 8027 78bc 4ea7 50bc 68eb 5bbd b454 583d
000001e0: f31d b0bc d71e 3d3d 6212 7fbc 6e80 4cbd
000001f0: f83d a93c edc5 0c3b 72f0 dcba a335 3a3d
00000200: 47b2 0dbd 0828 ab3b 4dbf c9bc 9d2b c53c
00000210: 9ab5 0fbd 5497 5f3d 07b5 c83c 1ec8 07bd
00000220: 01f7 663a ca69 123d 279b 08bd dd88 2dbd
00000230: 7c3d 343d 273c 1a3b 23b9 143c f2e0 4cbd
00000240: d173 02bd ed51 67bc 6ade 173d 1c8c 083d
00000250: c797 efbc 81bb ad3c 158f 393d 03b7 23bc
00000260: e2ec c63a 8451 d43c 551a fdbc 4e3b d13c
00000270: 9931 6d3c 58c3 ebbc e0b6 e1bc daa7 15bd
00000280: 0a97 c33c 4174 383d 73f7 203d a736 26bd
00000290: 6393 c8bc ce65 3fbd 8041 1f3d 542a 103c
000002a0: 630e 513d 5c04 473c ad0b 56bd 7a43 9a3c
000002b0: f77b 1a3c 8365 5fbd 589e 92bc d3a6 283d
000002c0: 67db efbc d86f 3f3c e166 58bd 8031 4d3d
000002d0: e696 2cbd c5d9 f7b9 a90f 4bbc f148 41bb
000002e0: 5070 05bd c3c3 bbbc fd5f 613d a3fc aabc
000002f0: 4151 3bbd 6cac 4bbd ed70 51bd ee30 0bbd
00000300: 489d 5bbd 994e 523d 0623 0a3d 921d d4bb
00000310: 8da4 3dbd 0783 34bd dde0 36bc bc13 473c
00000320: 3e80 f63b 6bff a3bc 40d1 ebbb 6870 383d
00000330: aa35 4d3d e6ca 39bd 784c 8f3c 8e51 353c
00000340: de11 46bd a589 023d 659f febc 858e 08bd
00000350: 3877 163d 88f3 88bb 2893 5a3d c027 0f3d
00000360: c87e 9f3c e290 2b3d 279f c0bc 786d fcbc
00000370: 56ad 04bd 7be2 21bd 3278 59bd 24db ab3c
00000380: e438 9fbb 57e5 efbc cccd d3bb b6e2 1abd
00000390: 9a32 eb3b 35d4 ba3b 78cf 503d e1d3 1cbd
000003a0: b435 003c dd49 a3bc 0e88 c93c 6c20 afbc
000003b0: 90df 803b 337d 34bd d7e2 003d fd7c 1c3d
000003c0: 9653 4d3c 6993 cd3c 2f4e d1bc 410a a53c
000003d0: e319 3ebd ff37 083d d2d7 60bd fb02 35bd
000003e0: b066 033d 99c9 163d cc88 8d3c c60d bcbc
000003f0: 8edc 953b 7071 373d d160 d23a adde 243c

fc0.bias f4 [50]
-0.033084635 0.00084450893 -0.05077757 0.04022856 -0.03461908 -0.046466045 -0.049512707 0.012990478
0.051276807 0.043633085 0.0030756167 0.029736182 0.0005574171 -0.012093751 -0.016110718 -0.017760005
0.05578746 0.032748397 0.020450115 0.020723486 -0.054951206 0.03245243 0.03903421 -0.039194133
-0.039072942 -0.033995546 -0.016985254 0.00029510199 0.0477259 -0.047995012 0.034008007 0.0038541188
0.03929145 0.04540727 -0.017778037 -0.017396737 0.011123058 0.037719037 -0.009560337 0.04747758
-0.0027754635 0.0057200594 0.02662158 -0.040751092 -0.048902716 -0.04625034 -0.049498014 0.04915771
-0.0040519396 -0.034822874
00000000: c183 07bd 0962 5d3a 24fc 4fbd b4c6 243d
00000010: bdcc 0dbd 2e53 3ebd d6cd 4abd 04d6 543c
00000020: a107 523d 9bb8 323d 4990 493b 4b99 f33c
00000030: a11f 123a de24 46bc a0fa 83bc 6e7d 91bc
00000040: 6481 643d 2f23 063d 0087 a73c 4dc4 a93c
00000050: 8414 61bd d7ec 043d 56e2 1f3d 078a 20bd
00000060: f30a 20bd ea3e 0bbd a924 8bbc ebb7 9a39
00000070: 3c7c 433d 6b96 44bd fb4b 0b3d 6295 7c3b
00000080: 12f0 203d f9fc 393d 3fa3 91bc 9a83 8ebc
00000090: 7d3d 363c 477f 1a3d f6a2 1cbc da77 423d
000000a0: 8de4 35bb 566f bb3b 8015 da3c 9eea 26bd
000000b0: 374e 48bd ff70 3dbd 6ebe 4abd 9859 493d
000000c0: 22c6 84bb 6ea2 0ebd

fc1.weight f4 [10, 50]
0.13023604 0.14020334 0.1240349 -0.0020472412 0.050266035 0.14022785 0.12599413 -0.13026151
0.1131953 -0.0055599115 -0.035423685 0.12204357 -0.09048929 0.048660763 -0.13718794 -0.016880758
0.11270928 0.06787538 -0.092775606 -0.027710628 0.11951272 0.019415166 0.06866646 0.12710391
0.092475384 0.097839095 0.13127838 0.072746135 0.07954424 0.046618953 -0.03999999 0.1257038
-0.046063557 -0.14058983 -0.063816234 -0.065260366 0.090094104 -0.108204 -0.03009747 -0.05772109
-0.04756783 0.017952772 0.08738099 -0.010518455 -0.11307946 -0.1175109 0.12360252 -0.049023043
-0.11509875 0.020176843 -0.027292665 0.008188644 -0.10754929 -0.11665461 -0.069175795 -0.121773966
0.1315016 0.11045857 0.03244616 -0.017496472 0.10169995 0.14111592 0.008202468 0.08510132
-0.035286758 -0.06962253 0.015641337 0.13238484 0.09746164 -0.034853775 -0.086144015 -0.10604704
0.105943985 -0.099739745 0.08505135 -0.106557116 0.118578814 0.030444171 -0.102908276 -0.056346327
0.12337946 0.053367402 -0.13468866 -0.060582474 -0.13536936 -0.08987059 0.037947036 0.037820544
0.13717559 0.11509997 -0.12947685 -0.08337867 0.114882484 0.058158137 0.05292144 0.059275735
-0.04761463 0.13555977 0.003261593 0.06260724 -0.09791661 0.124682 -0.1150224 0.019064099
-0.10469495 0.08033237 0.07457366 -0.112039074 -0.11220667 -0.0067226416 0.13271034 0.07513944
0.003939972 -0.05427115 0.11819978 0.020303806 0.054984663 0.1282885 0.110569395 0.070082456
-0.10051575 0.10160994 0.049644254 -0.07906188 0.022309355 0.004069447 -0.107042514 -0.064538024
0.01525512 -0.010387176 -0.091461144 0.012594035 -0.09290663 0.04803512 0.13901559 0.03816883
0.09799733 0.1061929 -0.00085991377 0.12484676 -0.08036683 0.020316249 -0.09971242 -0.046127535
-0.030380107 0.030659102 0.10752931 0.005287356 0.10649594 0.0413889 -0.074657954 0.0337892
0.0038692662 -0.08239543 -0.08035589 0.10782744 0.08741661 0.1392305 -0.0034762553 -0.138284
0.0037097996 -0.103617035 -0.0032362712 0.033359636 -0.027201729 0.0063111032 0.097366996 -0.065647244
0.017499339 -0.0916123 0.00024497436 -0.009753422 -0.09403847 -0.018536303 -0.05680099 -0.06401705
-0.025174145 0.086409725 0.009490442 0.10411621 -0.12855738 -0.032888114 0.0544348 0.067722484
-0.016092611 0.12721 0.025331842 -0.032352176 -0.07798472 0.12140338 0.042620074 0.005469633
0.12750785 -0.022831319 -0.12223819 -0.028971374 -0.06394928 -0.05265222 -0.011983884 -0.10921894
0.1390749 0.09717474 0.070204414 0.078382805 0.07196868 -0.14004079 -0.0511055 -0.10468625
0.056472953 -0.01774851 -0.039888993 -0.023958748 -0.057269577 0.12550779 0.097679995 0.039907303
-0.11451377 -0.14109898 0.083799876 -0.041368667 0.13798353 0.03163136 0.10696149 0.12204005
0.08719551 0.08374793 0.059301984 0.112984076 -0.06983055 -0.13653673 -0.070539735 -0.111100264
0.11830159 0.118791625 0.06847838 -0.053591236 -0.10453722 0.06023594 0.05572859 0.002736831
0.007836061 -0.0055751516 -0.010088523 -0.12415451 -0.03575946 0.109300524 -0.093254544 0.04979177
-0.10578524 -0.004393607 -0.09429865 -0.08601014 -0.10860062 -0.11538892 0.10668528 0.055598963
00000000: 995c 053e 7791 0f3e 0206 fe3d 022b 06bb
00000010: c2e3 4d3d e497 0f3e 9b04 013e 4663 05be
00000020: f0d2 e73d eb2f b6bb 6d18 11bd fbf1 f93d
00000030: 7352 b9bd 8250 473d ff7a 0cbe 8449 8abc
00000040: 1fd4 e63d 3f02 8b3d 2301 bebd 6601 e3bc
00000050: 16c3 f43d 8e0c 9f3c 00a1 8c3d 8727 023e
00000060: bc63 bd3d dd5f c83d d76d 063e edfb 943d
00000070: 17e8 a23d 84f3 3e3d 08d7 23bd 7fb8 003e
00000080: 24ad 3cbd c8f6 0fbe 16b2 82bd 3aa7 85bd
00000090: 4283 b83d 0f9a ddbd f88e f6bc f36c 6cbd
000000a0: 7cd6 42bd b111 933c cef4 b23d 9955 2cbc
000000b0: 3496 e7bd 8ea9 f0bd 5123 fd3d 63cc 48bd
000000c0: e5b8 ebbd e849 a53c de94 dfbc aa29 063c
000000d0: cd42 dcbd 9de8 eebd 0aac 8dbd a164 f9bd
000000e0: 5ba8 063e 1a38 e23d 44e6 043d c354 8fbc
000000f0: 1048 d03d b180 103e a563 063c 9a49 ae3d
00000100: d988 10bd 4296 8ebd 4322 803c e48f 073e
00000110: f899 c73d d5c2 0ebd 466c b0bd 312f d9bd
00000120: 29f9 d83d 5a44 ccbd 672f ae3d 9e3a dabd
00000130: 73d9 f23d 0e66 f93c 93c1 d2bd 68cb 66bd
00000140: 5fae fc3d c797 5a3d d3eb 09be 5425 78bd
00000150: 449e 0abe 120e b8bd 5a6e 1b3d b7e9 1a3d
00000160: c277 0c3e 88b9 eb3d 9495 04be 70c2 aabd
00000170: 8247 eb3d 3a37 6e3d 27c4 583d 1dcb 723d
00000180: 8f07 43bd 2ed0 0a3e 73c0 553b 3a38 803d
00000190: 8188 c8bd 4759 ff3d dd90 ebbd 502c 9c3c
000001a0: 4e6a d6bd 4c85 a43d 13ba 983d be74 e5bd
000001b0: 9ccc e5bd 9b49 dcbb 38e5 073e b5e2 993d
000001c0: e11a 813b 6d4b 5ebd ba12 f23d 2b54 a63c
000001d0: 9937 613d 0f5e 033e 3572 e23d 6487 8f3d
000001e0: 34db cdbd df18 d03d c657 4b3d 32eb a1bd
000001f0: 1cc2 b63c ff58 853b 1b39 dbbd 832c 84bd
00000200: 9cf0 793c f92e 2abc fb4f bbbd 3657 4e3c
00000210: d545 bebd 79c0 443d 1a5a 0e3e eb56 1c3d
00000220: d3b2 c83d aa7b d93d d66b 61ba a8af ff3d
00000230: 5d97 a4bd 436e a63c 0636 ccbd 3af0 3cbd
00000240: b4df f8bc cc28 fb3c 5438 dc3d 8f41 ad3b
00000250: 8b1a da3d 6887 293d 45e6 98bd 8b66 0a3d
00000260: 8493 7d3b efbe a8bd a191 a4bd a2d4 dc3d
00000270: 7b07 b33d 7192 0e3e e3d1 63bb 529a 0dbe
00000280: 1c20 733b 2b35 d4bd 9f17 54bb 1da4 083d
00000290: 29d6 debc 5fcd ce3b 5968 c73d 1072 86bd
000002a0: c65a 8f3c 3b9f bbbd e76f 8039 d1cc 1fbc
000002b0: 3e97 c0bd 72d9 97bc 28a8 68bd 5f1b 83bd
000002c0: 023a cebc 95f7 b03d cd7d 1b3c e13a d53d
000002d0: 8ca4 03be b0b5 06bd 06f7 5e3d 16b2 8a3d
000002e0: a7d4 83bc 5743 023e b984 cf3c b783 04bd
000002f0: 74b6 9fbd 56a2 f83d 6392 2e3d 9b3a b33b
00000300: 6b91 023e bf08 bbbc 0458 fabd 6055 edbc
00000310: d7f7 82bd dba9 57bd 0d58 44bc 2eae dfbd
00000320: a769 0e3e 8d03 c73d 55c7 8f3d 2a87 a03d
00000330: 5164 933d da66 0fbe 0054 51bd bf65 d6bd
00000340: 2f50 673d 5365 91bc a462 23bd 2345 c4bc
00000350: 8193 6abd 1d85 003e 730c c83d d775 233d
00000360: 3286 eabd 407c 10be 459f ab3d 3172 29bd
00000370: 8e4b 0d3e e38f 013d a00e db3d 22f0 f93d
00000380: 8f93 b23d 0984 ab3d a3e6 723d 3264 e73d
00000390: 5203 8fbd 49d0 0bbe 2377 90bd 8988 e3bd
000003a0: 1b48 f23d 0649 f33d 653e 8c3d 7c82 5bbd
000003b0: 9c17 d6bd f6b9 763d a943 643d 685c 333b
000003c0: d262 003c c3af b6bb 554a 25bc b844 febd
000003d0: 8378 12bd f4d8 df3d 3dfc bebd 74f2 4b3d
000003e0: efa5 d8bd 3ff8 8fbb a71f c1bd 1626 b0bd
000003f0: 006a debd 0751 ecbd d07d da3d bdbb 633d

fc1.bias f4 [10]
-0.13606985 -0.13929287 -0.11040001 0.03110419 0.007336974 0.059992604 -0.034489002 0.09416338
-0.017360473 -0.011625568
00000000: e555 0bbe caa2 0ebe 6719 e2bd 37ce fe3c
00000010: 006b f03b ceba 753d 5744 0dbd bbd8 c03d
00000020: 8d37 8ebc 2b79 3ebc
